7767517
250 297
Input                    in0                      0 1 in0
Convolution              conv_0                   1 1 in0 1 0=32 1=3 11=3 12=1 13=1 14=1 2=1 3=1 4=1 5=1 6=864
Swish                    silu_105                 1 1 1 2
Convolution              conv_1                   1 1 2 3 0=64 1=3 11=3 12=1 13=2 14=1 2=1 3=2 4=1 5=1 6=18432
Swish                    silu_106                 1 1 3 4
Convolution              conv_2                   1 1 4 5 0=64 1=3 11=3 12=1 13=1 14=1 2=1 3=1 4=1 5=1 6=36864
Swish                    silu_107                 1 1 5 6
Convolution              conv_3                   1 1 6 7 0=128 1=3 11=3 12=1 13=2 14=1 2=1 3=2 4=1 5=1 6=73728
Swish                    silu_108                 1 1 7 8
Split                    splitncnn_0              1 2 8 9 10
Convolution              conv_4                   1 1 10 11 0=64 1=1 11=1 12=1 13=1 14=0 2=1 3=1 4=0 5=1 6=8192
Swish                    silu_109                 1 1 11 12
Convolution              conv_5                   1 1 9 13 0=64 1=1 11=1 12=1 13=1 14=0 2=1 3=1 4=0 5=1 6=8192
Swish                    silu_110                 1 1 13 14
Split                    splitncnn_1              1 2 14 15 16
Convolution              conv_6                   1 1 16 17 0=64 1=3 11=3 12=1 13=1 14=1 2=1 3=1 4=1 5=1 6=36864
Swish                    silu_111                 1 1 17 18
Convolution              conv_7                   1 1 18 19 0=64 1=3 11=3 12=1 13=1 14=1 2=1 3=1 4=1 5=1 6=36864
Swish                    silu_112                 1 1 19 20
Split                    splitncnn_2              1 2 20 21 22
Convolution              conv_8                   1 1 22 23 0=64 1=3 11=3 12=1 13=1 14=1 2=1 3=1 4=1 5=1 6=36864
Swish                    silu_113                 1 1 23 24
Convolution              conv_9                   1 1 24 25 0=64 1=3 11=3 12=1 13=1 14=1 2=1 3=1 4=1 5=1 6=36864
Swish                    silu_114                 1 1 25 26
Concat                   cat_0                    4 1 26 21 15 12 27 0=0
Convolution              conv_10                  1 1 27 28 0=256 1=1 11=1 12=1 13=1 14=0 2=1 3=1 4=0 5=1 6=65536
Swish                    silu_115                 1 1 28 29
Split                    splitncnn_3              1 2 29 30 31
Pooling                  maxpool2d_92             1 1 31 32 0=0 1=2 11=2 12=2 13=0 2=2 3=0 5=1
Convolution              conv_11                  1 1 32 33 0=128 1=1 11=1 12=1 13=1 14=0 2=1 3=1 4=0 5=1 6=32768
Swish                    silu_116                 1 1 33 34
Convolution              conv_12                  1 1 30 35 0=128 1=1 11=1 12=1 13=1 14=0 2=1 3=1 4=0 5=1 6=32768
Swish                    silu_117                 1 1 35 36
Convolution              conv_13                  1 1 36 37 0=128 1=3 11=3 12=1 13=2 14=1 2=1 3=2 4=1 5=1 6=147456
Swish                    silu_118                 1 1 37 38
Concat                   cat_1                    2 1 38 34 39 0=0
Split                    splitncnn_4              1 2 39 40 41
Convolution              conv_14                  1 1 41 42 0=128 1=1 11=1 12=1 13=1 14=0 2=1 3=1 4=0 5=1 6=32768
Swish                    silu_119                 1 1 42 43
Convolution              conv_15                  1 1 40 44 0=128 1=1 11=1 12=1 13=1 14=0 2=1 3=1 4=0 5=1 6=32768
Swish                    silu_120                 1 1 44 45
Split                    splitncnn_5              1 2 45 46 47
Convolution              conv_16                  1 1 47 48 0=128 1=3 11=3 12=1 13=1 14=1 2=1 3=1 4=1 5=1 6=147456
Swish                    silu_121                 1 1 48 49
Convolution              conv_17                  1 1 49 50 0=128 1=3 11=3 12=1 13=1 14=1 2=1 3=1 4=1 5=1 6=147456
Swish                    silu_122                 1 1 50 51
Split                    splitncnn_6              1 2 51 52 53
Convolution              conv_18                  1 1 53 54 0=128 1=3 11=3 12=1 13=1 14=1 2=1 3=1 4=1 5=1 6=147456
Swish                    silu_123                 1 1 54 55
Convolution              conv_19                  1 1 55 56 0=128 1=3 11=3 12=1 13=1 14=1 2=1 3=1 4=1 5=1 6=147456
Swish                    silu_124                 1 1 56 57
Concat                   cat_2                    4 1 57 52 46 43 58 0=0
Convolution              conv_20                  1 1 58 59 0=512 1=1 11=1 12=1 13=1 14=0 2=1 3=1 4=0 5=1 6=262144
Swish                    silu_125                 1 1 59 60
Split                    splitncnn_7              1 3 60 61 62 63
Pooling                  maxpool2d_93             1 1 63 64 0=0 1=2 11=2 12=2 13=0 2=2 3=0 5=1
Convolution              conv_21                  1 1 64 65 0=256 1=1 11=1 12=1 13=1 14=0 2=1 3=1 4=0 5=1 6=131072
Swish                    silu_126                 1 1 65 66
Convolution              conv_22                  1 1 62 67 0=256 1=1 11=1 12=1 13=1 14=0 2=1 3=1 4=0 5=1 6=131072
Swish                    silu_127                 1 1 67 68
Convolution              conv_23                  1 1 68 69 0=256 1=3 11=3 12=1 13=2 14=1 2=1 3=2 4=1 5=1 6=589824
Swish                    silu_128                 1 1 69 70
Concat                   cat_3                    2 1 70 66 71 0=0
Split                    splitncnn_8              1 2 71 72 73
Convolution              conv_24                  1 1 73 74 0=256 1=1 11=1 12=1 13=1 14=0 2=1 3=1 4=0 5=1 6=131072
Swish                    silu_129                 1 1 74 75
Convolution              conv_25                  1 1 72 76 0=256 1=1 11=1 12=1 13=1 14=0 2=1 3=1 4=0 5=1 6=131072
Swish                    silu_130                 1 1 76 77
Split                    splitncnn_9              1 2 77 78 79
Convolution              conv_26                  1 1 79 80 0=256 1=3 11=3 12=1 13=1 14=1 2=1 3=1 4=1 5=1 6=589824
Swish                    silu_131                 1 1 80 81
Convolution              conv_27                  1 1 81 82 0=256 1=3 11=3 12=1 13=1 14=1 2=1 3=1 4=1 5=1 6=589824
Swish                    silu_132                 1 1 82 83
Split                    splitncnn_10             1 2 83 84 85
Convolution              conv_28                  1 1 85 86 0=256 1=3 11=3 12=1 13=1 14=1 2=1 3=1 4=1 5=1 6=589824
Swish                    silu_133                 1 1 86 87
Convolution              conv_29                  1 1 87 88 0=256 1=3 11=3 12=1 13=1 14=1 2=1 3=1 4=1 5=1 6=589824
Swish                    silu_134                 1 1 88 89
Concat                   cat_4                    4 1 89 84 78 75 90 0=0
Convolution              conv_30                  1 1 90 91 0=1024 1=1 11=1 12=1 13=1 14=0 2=1 3=1 4=0 5=1 6=1048576
Swish                    silu_135                 1 1 91 92
Split                    splitncnn_11             1 3 92 93 94 95
Pooling                  maxpool2d_94             1 1 95 96 0=0 1=2 11=2 12=2 13=0 2=2 3=0 5=1
Convolution              conv_31                  1 1 96 97 0=512 1=1 11=1 12=1 13=1 14=0 2=1 3=1 4=0 5=1 6=524288
Swish                    silu_136                 1 1 97 98
Convolution              conv_32                  1 1 94 99 0=512 1=1 11=1 12=1 13=1 14=0 2=1 3=1 4=0 5=1 6=524288
Swish                    silu_137                 1 1 99 100
Convolution              conv_33                  1 1 100 101 0=512 1=3 11=3 12=1 13=2 14=1 2=1 3=2 4=1 5=1 6=2359296
Swish                    silu_138                 1 1 101 102
Concat                   cat_5                    2 1 102 98 103 0=0
Split                    splitncnn_12             1 2 103 104 105
Convolution              conv_34                  1 1 105 106 0=256 1=1 11=1 12=1 13=1 14=0 2=1 3=1 4=0 5=1 6=262144
Swish                    silu_139                 1 1 106 107
Convolution              conv_35                  1 1 104 108 0=256 1=1 11=1 12=1 13=1 14=0 2=1 3=1 4=0 5=1 6=262144
Swish                    silu_140                 1 1 108 109
Split                    splitncnn_13             1 2 109 110 111
Convolution              conv_36                  1 1 111 112 0=256 1=3 11=3 12=1 13=1 14=1 2=1 3=1 4=1 5=1 6=589824
Swish                    silu_141                 1 1 112 113
Convolution              conv_37                  1 1 113 114 0=256 1=3 11=3 12=1 13=1 14=1 2=1 3=1 4=1 5=1 6=589824
Swish                    silu_142                 1 1 114 115
Split                    splitncnn_14             1 2 115 116 117
Convolution              conv_38                  1 1 117 118 0=256 1=3 11=3 12=1 13=1 14=1 2=1 3=1 4=1 5=1 6=589824
Swish                    silu_143                 1 1 118 119
Convolution              conv_39                  1 1 119 120 0=256 1=3 11=3 12=1 13=1 14=1 2=1 3=1 4=1 5=1 6=589824
Swish                    silu_144                 1 1 120 121
Concat                   cat_6                    4 1 121 116 110 107 122 0=0
Convolution              conv_40                  1 1 122 123 0=1024 1=1 11=1 12=1 13=1 14=0 2=1 3=1 4=0 5=1 6=1048576
Swish                    silu_145                 1 1 123 124
Split                    splitncnn_15             1 2 124 125 126
Convolution              conv_41                  1 1 126 127 0=512 1=1 11=1 12=1 13=1 14=0 2=1 3=1 4=0 5=1 6=524288
Swish                    silu_146                 1 1 127 128
Convolution              conv_42                  1 1 128 129 0=512 1=3 11=3 12=1 13=1 14=1 2=1 3=1 4=1 5=1 6=2359296
Swish                    silu_147                 1 1 129 130
Convolution              conv_43                  1 1 130 131 0=512 1=1 11=1 12=1 13=1 14=0 2=1 3=1 4=0 5=1 6=262144
Swish                    silu_148                 1 1 131 132
Split                    splitncnn_16             1 4 132 133 134 135 136
Pooling                  maxpool2d_95             1 1 136 137 0=0 1=5 11=5 12=1 13=2 2=1 3=2 5=1
Pooling                  maxpool2d_96             1 1 135 138 0=0 1=9 11=9 12=1 13=4 2=1 3=4 5=1
Pooling                  maxpool2d_97             1 1 134 139 0=0 1=13 11=13 12=1 13=6 2=1 3=6 5=1
Concat                   cat_7                    4 1 133 137 138 139 140 0=0
Convolution              conv_44                  1 1 140 141 0=512 1=1 11=1 12=1 13=1 14=0 2=1 3=1 4=0 5=1 6=1048576
Swish                    silu_149                 1 1 141 142
Convolution              conv_45                  1 1 142 143 0=512 1=3 11=3 12=1 13=1 14=1 2=1 3=1 4=1 5=1 6=2359296
Swish                    silu_150                 1 1 143 144
Convolution              conv_46                  1 1 125 145 0=512 1=1 11=1 12=1 13=1 14=0 2=1 3=1 4=0 5=1 6=524288
Swish                    silu_151                 1 1 145 146
Concat                   cat_8                    2 1 144 146 147 0=0
Convolution              conv_47                  1 1 147 148 0=512 1=1 11=1 12=1 13=1 14=0 2=1 3=1 4=0 5=1 6=524288
Swish                    silu_152                 1 1 148 149
Split                    splitncnn_17             1 2 149 150 151
Convolution              conv_48                  1 1 151 152 0=256 1=1 11=1 12=1 13=1 14=0 2=1 3=1 4=0 5=1 6=131072
Swish                    silu_153                 1 1 152 153
Interp                   upsample_103             1 1 153 154 0=1 1=2.000000e+00 2=2.000000e+00 6=0
Convolution              conv_49                  1 1 93 155 0=256 1=1 11=1 12=1 13=1 14=0 2=1 3=1 4=0 5=1 6=262144
Swish                    silu_154                 1 1 155 156
Concat                   cat_9                    2 1 156 154 157 0=0
Split                    splitncnn_18             1 2 157 158 159
Convolution              conv_50                  1 1 159 160 0=256 1=1 11=1 12=1 13=1 14=0 2=1 3=1 4=0 5=1 6=131072
Swish                    silu_155                 1 1 160 161
Convolution              conv_51                  1 1 158 162 0=256 1=1 11=1 12=1 13=1 14=0 2=1 3=1 4=0 5=1 6=131072
Swish                    silu_156                 1 1 162 163
Split                    splitncnn_19             1 2 163 164 165
Convolution              conv_52                  1 1 165 166 0=128 1=3 11=3 12=1 13=1 14=1 2=1 3=1 4=1 5=1 6=294912
Swish                    silu_157                 1 1 166 167
Split                    splitncnn_20             1 2 167 168 169
Convolution              conv_53                  1 1 169 170 0=128 1=3 11=3 12=1 13=1 14=1 2=1 3=1 4=1 5=1 6=147456
Swish                    silu_158                 1 1 170 171
Split                    splitncnn_21             1 2 171 172 173
Convolution              conv_54                  1 1 173 174 0=128 1=3 11=3 12=1 13=1 14=1 2=1 3=1 4=1 5=1 6=147456
Swish                    silu_159                 1 1 174 175
Split                    splitncnn_22             1 2 175 176 177
Convolution              conv_55                  1 1 177 178 0=128 1=3 11=3 12=1 13=1 14=1 2=1 3=1 4=1 5=1 6=147456
Swish                    silu_160                 1 1 178 179
Concat                   cat_10                   6 1 179 176 172 168 164 161 180 0=0
Convolution              conv_56                  1 1 180 181 0=256 1=1 11=1 12=1 13=1 14=0 2=1 3=1 4=0 5=1 6=262144
Swish                    silu_161                 1 1 181 182
Split                    splitncnn_23             1 2 182 183 184
Convolution              conv_57                  1 1 184 185 0=128 1=1 11=1 12=1 13=1 14=0 2=1 3=1 4=0 5=1 6=32768
Swish                    silu_162                 1 1 185 186
Interp                   upsample_104             1 1 186 187 0=1 1=2.000000e+00 2=2.000000e+00 6=0
Convolution              conv_58                  1 1 61 188 0=128 1=1 11=1 12=1 13=1 14=0 2=1 3=1 4=0 5=1 6=65536
Swish                    silu_163                 1 1 188 189
Concat                   cat_11                   2 1 189 187 190 0=0
Split                    splitncnn_24             1 2 190 191 192
Convolution              conv_59                  1 1 192 193 0=128 1=1 11=1 12=1 13=1 14=0 2=1 3=1 4=0 5=1 6=32768
Swish                    silu_164                 1 1 193 194
Convolution              conv_60                  1 1 191 195 0=128 1=1 11=1 12=1 13=1 14=0 2=1 3=1 4=0 5=1 6=32768
Swish                    silu_165                 1 1 195 196
Split                    splitncnn_25             1 2 196 197 198
Convolution              conv_61                  1 1 198 199 0=64 1=3 11=3 12=1 13=1 14=1 2=1 3=1 4=1 5=1 6=73728
Swish                    silu_166                 1 1 199 200
Split                    splitncnn_26             1 2 200 201 202
Convolution              conv_62                  1 1 202 203 0=64 1=3 11=3 12=1 13=1 14=1 2=1 3=1 4=1 5=1 6=36864
Swish                    silu_167                 1 1 203 204
Split                    splitncnn_27             1 2 204 205 206
Convolution              conv_63                  1 1 206 207 0=64 1=3 11=3 12=1 13=1 14=1 2=1 3=1 4=1 5=1 6=36864
Swish                    silu_168                 1 1 207 208
Split                    splitncnn_28             1 2 208 209 210
Convolution              conv_64                  1 1 210 211 0=64 1=3 11=3 12=1 13=1 14=1 2=1 3=1 4=1 5=1 6=36864
Swish                    silu_169                 1 1 211 212
Concat                   cat_12                   6 1 212 209 205 201 197 194 213 0=0
Convolution              conv_65                  1 1 213 214 0=128 1=1 11=1 12=1 13=1 14=0 2=1 3=1 4=0 5=1 6=65536
Swish                    silu_170                 1 1 214 215
Split                    splitncnn_29             1 3 215 216 217 218
Pooling                  maxpool2d_98             1 1 218 219 0=0 1=2 11=2 12=2 13=0 2=2 3=0 5=1
Convolution              conv_66                  1 1 219 220 0=128 1=1 11=1 12=1 13=1 14=0 2=1 3=1 4=0 5=1 6=16384
Swish                    silu_171                 1 1 220 221
Convolution              conv_67                  1 1 217 222 0=128 1=1 11=1 12=1 13=1 14=0 2=1 3=1 4=0 5=1 6=16384
Swish                    silu_172                 1 1 222 223
Convolution              conv_68                  1 1 223 224 0=128 1=3 11=3 12=1 13=2 14=1 2=1 3=2 4=1 5=1 6=147456
Swish                    silu_173                 1 1 224 225
Concat                   cat_13                   3 1 225 221 183 226 0=0
Split                    splitncnn_30             1 2 226 227 228
Convolution              conv_69                  1 1 228 229 0=256 1=1 11=1 12=1 13=1 14=0 2=1 3=1 4=0 5=1 6=131072
Swish                    silu_174                 1 1 229 230
Convolution              conv_70                  1 1 227 231 0=256 1=1 11=1 12=1 13=1 14=0 2=1 3=1 4=0 5=1 6=131072
Swish                    silu_175                 1 1 231 232
Split                    splitncnn_31             1 2 232 233 234
Convolution              conv_71                  1 1 234 235 0=128 1=3 11=3 12=1 13=1 14=1 2=1 3=1 4=1 5=1 6=294912
Swish                    silu_176                 1 1 235 236
Split                    splitncnn_32             1 2 236 237 238
Convolution              conv_72                  1 1 238 239 0=128 1=3 11=3 12=1 13=1 14=1 2=1 3=1 4=1 5=1 6=147456
Swish                    silu_177                 1 1 239 240
Split                    splitncnn_33             1 2 240 241 242
Convolution              conv_73                  1 1 242 243 0=128 1=3 11=3 12=1 13=1 14=1 2=1 3=1 4=1 5=1 6=147456
Swish                    silu_178                 1 1 243 244
Split                    splitncnn_34             1 2 244 245 246
Convolution              conv_74                  1 1 246 247 0=128 1=3 11=3 12=1 13=1 14=1 2=1 3=1 4=1 5=1 6=147456
Swish                    silu_179                 1 1 247 248
Concat                   cat_14                   6 1 248 245 241 237 233 230 249 0=0
Convolution              conv_75                  1 1 249 250 0=256 1=1 11=1 12=1 13=1 14=0 2=1 3=1 4=0 5=1 6=262144
Swish                    silu_180                 1 1 250 251
Split                    splitncnn_35             1 3 251 252 253 254
Pooling                  maxpool2d_99             1 1 254 255 0=0 1=2 11=2 12=2 13=0 2=2 3=0 5=1
Convolution              conv_76                  1 1 255 256 0=256 1=1 11=1 12=1 13=1 14=0 2=1 3=1 4=0 5=1 6=65536
Swish                    silu_181                 1 1 256 257
Convolution              conv_77                  1 1 253 258 0=256 1=1 11=1 12=1 13=1 14=0 2=1 3=1 4=0 5=1 6=65536
Swish                    silu_182                 1 1 258 259
Convolution              conv_78                  1 1 259 260 0=256 1=3 11=3 12=1 13=2 14=1 2=1 3=2 4=1 5=1 6=589824
Swish                    silu_183                 1 1 260 261
Concat                   cat_15                   3 1 261 257 150 262 0=0
Split                    splitncnn_36             1 2 262 263 264
Convolution              conv_79                  1 1 264 265 0=512 1=1 11=1 12=1 13=1 14=0 2=1 3=1 4=0 5=1 6=524288
Swish                    silu_184                 1 1 265 266
Convolution              conv_80                  1 1 263 267 0=512 1=1 11=1 12=1 13=1 14=0 2=1 3=1 4=0 5=1 6=524288
Swish                    silu_185                 1 1 267 268
Split                    splitncnn_37             1 2 268 269 270
Convolution              conv_81                  1 1 270 271 0=256 1=3 11=3 12=1 13=1 14=1 2=1 3=1 4=1 5=1 6=1179648
Swish                    silu_186                 1 1 271 272
Split                    splitncnn_38             1 2 272 273 274
Convolution              conv_82                  1 1 274 275 0=256 1=3 11=3 12=1 13=1 14=1 2=1 3=1 4=1 5=1 6=589824
Swish                    silu_187                 1 1 275 276
Split                    splitncnn_39             1 2 276 277 278
Convolution              conv_83                  1 1 278 279 0=256 1=3 11=3 12=1 13=1 14=1 2=1 3=1 4=1 5=1 6=589824
Swish                    silu_188                 1 1 279 280
Split                    splitncnn_40             1 2 280 281 282
Convolution              conv_84                  1 1 282 283 0=256 1=3 11=3 12=1 13=1 14=1 2=1 3=1 4=1 5=1 6=589824
Swish                    silu_189                 1 1 283 284
Concat                   cat_16                   6 1 284 281 277 273 269 266 285 0=0
Convolution              conv_85                  1 1 285 286 0=512 1=1 11=1 12=1 13=1 14=0 2=1 3=1 4=0 5=1 6=1048576
Swish                    silu_190                 1 1 286 287
Convolution              conv_86                  1 1 216 288 0=256 1=3 11=3 12=1 13=1 14=1 2=1 3=1 4=1 5=1 6=294912
Swish                    silu_100                 1 1 288 289
Convolution              conv_87                  1 1 252 290 0=512 1=3 11=3 12=1 13=1 14=1 2=1 3=1 4=1 5=1 6=1179648
Swish                    silu_101                 1 1 290 291
Convolution              conv_88                  1 1 287 292 0=1024 1=3 11=3 12=1 13=1 14=1 2=1 3=1 4=1 5=1 6=4718592
Swish                    silu_102                 1 1 292 293
Convolution              conv_89                  1 1 289 out0 0=255 1=1 11=1 12=1 13=1 14=0 2=1 3=1 4=0 5=1 6=65280
Convolution              conv_90                  1 1 291 out1 0=255 1=1 11=1 12=1 13=1 14=0 2=1 3=1 4=0 5=1 6=130560
Convolution              conv_91                  1 1 293 out2 0=255 1=1 11=1 12=1 13=1 14=0 2=1 3=1 4=0 5=1 6=261120
